…
            "2024-04-24 15:17:43.350667: E external/local_xla/xla/stream_executor/cuda/cuda_fft.cc:607] Unable to register cuFFT factory: Attempting to register factory for plugin cuFFT when one has already been registered\n",
            "2024-04-24 15:17:43.351965: E external/local_xla/xla/stream_executor/cuda/cuda_blas.cc:1515] Unable to register cuBLAS factory: Attempting to register factory for plugin cuBLAS when one has already been registered\n",
            "Overriding model.yaml nc=80 with nc=5\n",
            "\n",
            "                   from  n    params  module                                       arguments                     \n",
            "  0                  -1  1      1392  ultralytics.nn.modules.conv.Conv             [3, 48, 3, 2]                 \n",
            "  1                  -1  1     41664  ultralytics.nn.modules.conv.Conv             [48, 96, 3, 2]                \n",
            "  2                  -1  2    111360  ultralytics.nn.modules.block.C2f             [96, 96, 2, True]             \n",
            "  3                  -1  1    166272  ultralytics.nn.modules.conv.Conv             [96, 192, 3, 2]               \n",
            "  4                  -1  4    813312  ultralytics.nn.modules.block.C2f             [192, 192, 4, True]           \n",
            "  5                  -1  1    664320  ultralytics.nn.modules.conv.Conv             [192, 384, 3, 2]              \n",
            "  6                  -1  4   3248640  ultralytics.nn.modules.block.C2f             [384, 384, 4, True]           \n",
            "  7                  -1  1   1991808  ultralytics.nn.modules.conv.Conv             [384, 576, 3, 2]              \n",
            "  8                  -1  2   3985920  ultralytics.nn.modules.block.C2f             [576, 576, 2, True]           \n",
            "  9                  -1  1    831168  ultralytics.nn.modules.block.SPPF            [576, 576, 5]                 \n",
            " 10                  -1  1         0  torch.nn.modules.upsampling.Upsample         [None, 2, 'nearest']          \n",
            " 11             [-1, 6]  1         0  ultralytics.nn.modules.conv.Concat           [1]                           \n",
            " 12                  -1  2   1993728  ultralytics.nn.modules.block.C2f             [960, 384, 2]                 \n",
            " 13                  -1  1         0  torch.nn.modules.upsampling.Upsample         [None, 2, 'nearest']          \n",
            " 14             [-1, 4]  1         0  ultralytics.nn.modules.conv.Concat           [1]                           \n",
            " 15                  -1  2    517632  ultralytics.nn.modules.block.C2f             [576, 192, 2]                 \n",
            " 16                  -1  1    332160  ultralytics.nn.modules.conv.Conv             [192, 192, 3, 2]              \n",
            " 17            [-1, 12]  1         0  ultralytics.nn.modules.conv.Concat           [1]                           \n",
            " 18                  -1  2   1846272  ultralytics.nn.modules.block.C2f             [576, 384, 2]                 \n",
            " 19                  -1  1   1327872  ultralytics.nn.modules.conv.Conv             [384, 384, 3, 2]              \n",
            " 20             [-1, 9]  1         0  ultralytics.nn.modules.conv.Concat           [1]                           \n",
            " 21                  -1  2   4207104  ultralytics.nn.modules.block.C2f             [960, 576, 2]                 \n",
            " 22        [15, 18, 21]  1   3778591  ultralytics.nn.modules.head.Detect           [5, [192, 384, 576]]          \n",
            "Model summary: 295 layers, 25859215 parameters, 25859199 gradients, 79.1 GFLOPs\n",
            "\n",
            "Transferred 469/475 items from pretrained weights\n",
            "\u001b[34m\u001b[1mTensorBoard: \u001b[0mStart with 'tensorboard --logdir runs/detect/train3', view at http://localhost:6006/\n",
            "Freezing layer 'model.22.dfl.conv.weight'\n",
…
